sym_shape_infer_temp.onnx (onnx, 99477 bytes, 56 tensors)

feat_extractor.4.block.2.fc1.bias f4 [24]
0	0xbd2189ad	-0.03943794
1	0xbcc4822b	-0.02398785
2	0xbde4a3df	-0.111640684
3	0xbdc6e771	-0.09712113
4	0xbdb4cdf3	-0.08828344
5	0xbe8d2107	-0.2756426
6	0x3e89afc9	0.26891926
7	0xbd8713ce	-0.06595574
8	0xbda63b45	-0.081167735
9	0xbd43a28f	-0.04776245
10	0xbd41fa55	-0.047357876
11	0x3db44872	0.0880288
12	0xbd137ac9	-0.03600577
13	0xbde141ff	-0.10998916
14	0xbdd787fc	-0.10523984
15	0xbd0b175c	-0.033957824
16	0x3e5df055	0.2167371
17	0xbd9370c2	-0.07199241
18	0xbbfb3a64	-0.007666873
19	0xbd527770	-0.051383436
20	0xbd8a27f5	-0.067459024
21	0xbdf19b0f	-0.11797153
22	0x3d3010a3	0.042984616
23	0xbdfee5b7	-0.124461584

feat_extractor.4.block.2.fc2.bias f4 [72]
0	0x3da43147	0.080172114
1	0x3e886126	0.26636618
2	0x3e96588a	0.29364425
3	0x3f2a4181	0.665062
4	0x3f03f2de	0.5154246
5	0x3f188a04	0.59585595
6	0x3d69ebe4	0.05710973
7	0x3ec6c881	0.38824847
8	0x3f0e3173	0.55544204
9	0x3dea7b5f	0.114493124
10	0x3f1023bd	0.5630453
11	0x3e913465	0.28360286
12	0x3ee85903	0.4538041
13	0x3d8d8221	0.06909586
14	0x3efef067	0.49792787
15	0x3e64aa51	0.22330596
16	0x3e9b1349	0.3028815
17	0xbc56bc75	-0.013106455
18	0x3e922b8b	0.28548846
19	0x3f43c390	0.7647028
20	0x3f0527db	0.5201394
21	0xbe903bb7	-0.2817056
22	0x3f1985a6	0.59969556
23	0x3e1d504c	0.15362662
24	0x3f1c2c94	0.6100552
25	0x3eefe4c5	0.46854225
26	0x3ec1ee39	0.37877062
27	0x3ec201ef	0.378921
28	0x3ec6b5c7	0.3881056
29	0xbeae52ba	-0.3404749
30	0x3e8492b7	0.25893185
31	0x3e99f02d	0.30066052
32	0x3e6a7b16	0.22898516
33	0xbef58fa4	-0.47961152
34	0x3ea959fb	0.33076462
35	0x3e3f300e	0.18670675
36	0x3f41a5e4	0.75643754
37	0x3f7d5b28	0.9896722
38	0xbdce082b	-0.10060152
39	0xbd19ba3d	-0.037531126
40	0x3ef9c0da	0.48779947
41	0x3efd06e1	0.4941931
42	0x3e9113ab	0.28335318
43	0x3f1259f4	0.5716851
44	0x3ecc4c68	0.39902043
45	0xbee68376	-0.45022172
46	0xbd334b50	-0.043772995
47	0x3d83ba5a	0.06432028
48	0xbbaae673	-0.00521546
49	0x3ef0713b	0.46961388
50	0x3e4ed1ea	0.20197263
51	0x3f38c174	0.72170186
52	0x3e084d22	0.13310674
53	0x3f1d401d	0.61425954
54	0x3ed40207	0.41407797
55	0x3de8606e	0.113465175
56	0x3f049eaf	0.5180463
57	0x3f6272a9	0.8845621
58	0xbee00419	-0.43753126
59	0xbba216bb	-0.0049465573
60	0x3e74fb4c	0.23923987
61	0x3f027081	0.5095292
62	0x3ee9bdbd	0.4565257
63	0x3e9cfc1e	0.306611
64	0x3ec06bad	0.3758215
65	0x3f017f99	0.50585324
66	0xbe13a93a	-0.14420024
67	0x3ec372eb	0.38173613
68	0x3e64b5d0	0.22334981
69	0x3f6afb93	0.9179012
70	0x3df11fb2	0.117736235
71	0x3e91448b	0.28372607

feat_extractor.5.block.2.fc1.bias f4 [32]
0	0xbc9dbfa8	-0.019256428
1	0xbd3881fa	-0.04504583
2	0xbd9e3abf	-0.07726049
3	0xbd4e8b92	-0.050426073
4	0xbcbcb618	-0.023036048
5	0xbd5372cd	-0.051623154
6	0xbc963049	-0.018333571
7	0xbd2b400e	-0.041809134
8	0xbcf567ab	-0.02995666
9	0xbd38a585	-0.045079727
10	0xbdcf0809	-0.101089545
11	0xbc4d7e36	-0.012542298
12	0xbd95600d	-0.07293711
13	0xbd8f157e	-0.06986521
14	0xbd2f0118	-0.042725652
15	0x3e0db682	0.13839152
16	0xbdba7919	-0.09105129
17	0xbdcc8993	-0.09987178
18	0xbd42af33	-0.047530364
19	0xbd411ae5	-0.04714479
20	0xbb9c3371	-0.0047668745
21	0xbd243929	-0.040093575
22	0xbdb44ba3	-0.08803489
23	0x00000000	0.0
24	0xbcd0bae0	-0.025479734
25	0xbd1ad90b	-0.037804645
26	0x3cba4650	0.022738606
27	0xbd092551	-0.033482853
28	0xbd028d47	-0.031873014
29	0xbcc3cc6a	-0.023901183
30	0xbdb3d46e	-0.08780752
31	0xbd92c1d5	-0.07165877

feat_extractor.5.block.2.fc2.bias f4 [120]
0	0x3f44d2f1	0.7688437
1	0x3e16d761	0.14730598
2	0x3d7b0488	0.06128362
3	0x3e757e86	0.23974046
4	0xbefd3898	-0.4945724
5	0x3d087018	0.033310026
6	0x3efc358d	0.49259606
7	0x3ed39c26	0.4133007
8	0x3f295e58	0.6615958
9	0xbe490c5d	-0.19633622
10	0xbcd05f9b	-0.025436213
11	0xbedb4618	-0.42826915
12	0x3ee14ad0	0.4400239
13	0xbe886f94	-0.26647627
14	0xbe48f6f5	-0.19625457
15	0x3dedde15	0.116146244
16	0x3ea7cfb0	0.3277564
17	0x3d4a7521	0.04942811
18	0x3dd44c19	0.10366077
19	0x3f007106	0.5017246
20	0x3eeca84c	0.4622215
21	0xbed2f243	-0.41200456
22	0x3effe5ef	0.49980113
23	0xbe0ac8bf	-0.13553141
24	0x3ec1399c	0.37739265
25	0x3f1a4307	0.60258526
26	0xbd2cddfa	-0.04220388
27	0x3d813200	0.06308365
28	0x3ec63b98	0.3871734
29	0x3e47e207	0.19519816
30	0x3f1c9874	0.61170125
31	0xbeedc2f1	-0.4643779
32	0x3f4cd18d	0.8000725
33	0xbe8bb959	-0.27289847
34	0x3edc919b	0.43079838
35	0x3f8e1cf7	1.1102589
36	0xbda764b8	-0.081735075
37	0x3f25a907	0.6471104
38	0x3f2d41eb	0.6767871
39	0xbf2e22b8	-0.68021727
40	0xbeafeddf	-0.3436117
41	0xbf13b0f3	-0.5769188
42	0x3f136542	0.5757638
43	0x3d370aab	0.04468791
44	0x3e2dab00	0.16959763
45	0x3c9bbdfa	0.019011486
46	0x3ca27b0b	0.019834062
47	0x3ea7fe9b	0.32811436
48	0xbe637079	-0.22210874
49	0x3ec8b2f8	0.39199042
50	0x3e83d0a7	0.25745127
51	0x3e4111a0	0.1885438
52	0x3e6a7c56	0.22898993
53	0x3b3b3898	0.0028567668
54	0x3e739d71	0.23790528
55	0xbea4cbd9	-0.32186773
56	0x3ca3f490	0.020014077
57	0xbf34be0e	-0.706025
58	0xbc76dc4e	-0.015067173
59	0x3e900250	0.28126764
60	0x3f1619fe	0.5863341
61	0xbe82432b	-0.2544187
62	0x3d7ae9be	0.06125807
63	0x3eb29ab0	0.34883642
64	0x3f0c6156	0.5483602
65	0xbe92a37a	-0.28640348
66	0x3f7c9d64	0.9867766
67	0xbc899de1	-0.016798915
68	0x3ea039b6	0.3129403
69	0xbd852ad9	-0.06502313
70	0x3eb5d3a9	0.35513046
71	0xbb3e5817	-0.0029044205
72	0x3deb2c75	0.11483089
73	0x3d195796	0.037437044
74	0x3f27d4bd	0.6555899
75	0x3e774ef2	0.24151209
76	0xbebe22da	-0.37135965
77	0xbf15ba7d	-0.58487684
78	0x3ed42099	0.4143112
79	0x3ef63c49	0.4809287
80	0xbe114522	-0.14186528
81	0xbe9b424b	-0.30324015
82	0x3bea69a4	0.0071537066
83	0xbf0e77cd	-0.5565155
84	0x3dfde607	0.1239739
85	0xbf1c7f1a	-0.6113144
86	0xbe9c0e0c	-0.30479467
87	0x3eee3093	0.46521434
88	0x3ef0da41	0.47041515
89	0xbe09b83d	-0.13449188
90	0x3e92219c	0.28541267
91	0x3f1e2451	0.61774164
92	0x3efe6bfd	0.49691764
93	0xbdce84b5	-0.100839056
94	0x3f4bf6ea	0.79673636
95	0x3f056fa5	0.5212348
96	0x3edb10a6	0.4278614
97	0x3eece800	0.46270752
98	0x3e7a6b62	0.24455026
99	0x3e4f4ef4	0.20244962
100	0x3ed9c732	0.42534786
101	0x3eb0f343	0.34560594
102	0x3f38fd8a	0.7226187
103	0x3edc5517	0.43033668
104	0x3e81f503	0.25382242
105	0x3e5c52ba	0.21515933
106	0xbf03553f	-0.5130195
107	0x3e2a1a5f	0.16611622
108	0x3e6ec2b9	0.23316468
109	0x3f819bc5	1.0125662
110	0x3f03fe23	0.51559657
111	0x3f6edf50	0.933095
112	0xbf308704	-0.6895602
113	0xbe8c001a	-0.27343827
114	0xbf11acdd	-0.56904393
115	0x3cef83f6	0.029237729
116	0x3ebd9534	0.37027895
117	0x3ee66dda	0.45005685
118	0x3ed99de2	0.42503268
119	0x3f11019f	0.566431

feat_extractor.6.block.2.fc1.bias f4 [32]
0	0xbc3e4cac	-0.01161496
1	0xbd01675f	-0.031592723
2	0xbd39d2a0	-0.045366883
3	0xbda12e44	-0.078701526
4	0xbda86a82	-0.0822344
5	0xbcc121a7	-0.023575617
6	0xbdb58b13	-0.08864417
7	0xbdf523b6	-0.11969702
8	0xbde2cb46	-0.110739276
9	0xbdad86c1	-0.08472968
10	0xbdc85aa7	-0.097829156
11	0xbd7eceb1	-0.062208835
12	0xbd2c101b	-0.042007547
13	0xbd099839	-0.033592436
14	0xbd4c09ae	-0.04981392
15	0xbdd91c22	-0.10601069
16	0xbce44023	-0.027862614
17	0xbd389b7c	-0.045070156
18	0xbcc25d92	-0.023726258
19	0xbd456dd5	-0.048200447
20	0xbce31a09	-0.027722375
21	0xbd375872	-0.044762082
22	0xbd2103bb	-0.0393102
23	0xbc9f5506	-0.019449722
24	0xbd449288	-0.047991306
25	0xbd377422	-0.044788487
26	0xbd9f4ee6	-0.077787206
27	0xbd43d523	-0.047810685
28	0xbce88aae	-0.02838644
29	0xbcf14935	-0.029453853
30	0xbc9dd18d	-0.01926496
31	0xbd768da7	-0.060193684

feat_extractor.6.block.2.fc2.bias f4 [120]
0	0xbdf85181	-0.12124921
1	0xbf54c11f	-0.8310718
2	0x3e5bbc40	0.2145853
3	0x3e0eda65	0.13950498
4	0x3e38a02d	0.18029852
5	0x3ee7ef96	0.45299977
6	0xbe9d16f3	-0.3068157
7	0x3ee94940	0.45563698
8	0x3ec48d5f	0.38389108
9	0xbfc396ed	-1.5280434
10	0x3e14dfdf	0.14538525
11	0x3eb20285	0.34767547
12	0x3e8be208	0.27320886
13	0x3f045cdc	0.5170419
14	0x3f8194bd	1.0123516
15	0xbeac919f	-0.3370485
16	0x3f150a5f	0.5821895
17	0xbcb7bbd9	-0.02242844
18	0xbff6f411	-1.9293233
19	0x3ef2e80d	0.47442666
20	0xc0215e2e	-2.5213733
21	0xc02ed0dc	-2.7314978
22	0x3f2ed500	0.6829376
23	0xbd8418e0	-0.06450057
24	0x3f2eee1d	0.6833208
25	0xbf7ca61d	-0.9869097
26	0x3eaa5fb9	0.33276156
27	0x3ebb1c44	0.36545002
28	0x3e469d88	0.19396031
29	0x3f4edb04	0.8080294
30	0xbddf685b	-0.10908576
31	0xbe0ab1dd	-0.13544412
32	0x3f2ebd6c	0.68257785
33	0x3e94f873	0.29095802
34	0x3e5e6248	0.21717179
35	0x3e16cc1c	0.14726299
36	0xbbd9ed58	-0.006650608
37	0x3dd2e20b	0.102970205
38	0x3f126d68	0.5719819
39	0xbf334982	-0.7003404
40	0x3f383af5	0.7196496
41	0x3f012c48	0.5045819
42	0xbeae712d	-0.3407072
43	0x3f3ed3c3	0.7454187
44	0x3e293ba5	0.16526659
45	0xbde48745	-0.11158613
46	0xbfcbfd4e	-1.5936677
47	0xbea6029f	-0.32423875
48	0x3f3affb1	0.73046404
49	0xbe1f870e	-0.15578863
50	0xbf56b55e	-0.83870494
51	0x3d2de510	0.04245478
52	0x3ed40944	0.4141332
53	0xbf88825d	-1.0664784
54	0xbf5c8c04	-0.86151147
55	0xbeb35e92	-0.3503309
56	0x3ec7c41a	0.390168
57	0xbd99e65f	-0.07514643
58	0xbebe5a31	-0.37178186
59	0x3ce45684	0.027873285
60	0x3f16836c	0.58794284
61	0x3e7d8838	0.24758995
62	0xc024f30d	-2.5773346
63	0x3f04ca5c	0.51871276
64	0x3f2291df	0.6350383
65	0xbf35f7c3	-0.7108118
66	0xbed64da7	-0.4185612
67	0xbed8e748	-0.42363954
68	0x3efd9c23	0.49533185
69	0xbee76e18	-0.45201182
70	0x3e65f143	0.22455315
71	0x3f627093	0.88453025
72	0x3e11964b	0.14217488
73	0xbf27d041	-0.65552145
74	0x3d35dcfe	0.044400208
75	0x3ece6735	0.40313116
76	0x3f4fdcf6	0.81196535
77	0x3ede1de0	0.43382168
78	0x3e8d4a16	0.27595586
79	0x3e81bdad	0.25340024
80	0xbff75d6f	-1.9325389
81	0x3e536c5e	0.20646808
82	0xbf883e21	-1.064396
83	0x3be914e6	0.007113087
84	0x3f0bf9d6	0.54678094
85	0x3ea21bed	0.3166193
86	0x3cdf79e2	0.027279798
87	0xbf0e44d2	-0.5557376
88	0xbfa0167c	-1.2506862
89	0xbe0c968c	-0.13729304
90	0xbf5e750f	-0.8689737
91	0x3ea141a2	0.31495386
92	0x3dca68ab	0.09883245
93	0xbddde5a1	-0.10834814
94	0x3e587b30	0.21140742
95	0x3ee8f4cd	0.45499268
96	0x3ebc5924	0.3678676
97	0xbd5cce13	-0.053907465
98	0x3efc6071	0.4929233
99	0xbf0f7cd6	-0.5604986
100	0x3e3c5bb4	0.18394357
101	0xbec89177	-0.3917348
102	0xbd064dcb	-0.032789033
103	0xc0062434	-2.0959597
104	0x3e8f4286	0.2798044
105	0xbfb9d6c3	-1.4518665
106	0x3f27db92	0.6556941
107	0xbfe52c1d	-1.7904087
108	0x3e3c54bb	0.18391697
109	0x3f179353	0.59209174
110	0xbe48c301	-0.19605638
111	0xbdfd5240	-0.123692036
112	0x3f168432	0.58795464
113	0x3f1c95f3	0.61166304
114	0xbec14822	-0.37750345
115	0x3eca0641	0.39457896
116	0x3ca0afe4	0.019615121
117	0x3e904193	0.2817503
118	0x3d5e5841	0.054283384
119	0xbe54ad83	-0.20769314

feat_extractor.11.block.2.fc1.bias f4 [120]
0	0xbd8f9ad7	-0.07011955
1	0xbe3c7494	-0.18403846
2	0x3d9a8c39	0.075462766
3	0xbbda6069	-0.006664325
4	0xbcd0468f	-0.02542427
5	0xbe43c852	-0.19119385
6	0x3cb436c0	0.021998763
7	0xbd9648c2	-0.07338096
8	0xbcc5a0a3	-0.02412445
9	0xbd6f6e01	-0.058454517
10	0xbd903eea	-0.0704325
11	0xbe86e44e	-0.26346058
12	0x3d493c1b	0.049129587
13	0xbe8d5983	-0.27607355
14	0xbe276d9a	-0.16350403
15	0xbd9c0678	-0.07618421
16	0xbde5d45a	-0.112221435
17	0x3d917a35	0.07103387
18	0x3e43a9ad	0.19107695
19	0xbcbb6b35	-0.022878269
20	0xbe500063	-0.20312648
21	0xbe147a0a	-0.14499679
22	0xbe8283e2	-0.25491244
23	0x3e79eb07	0.24406062
24	0x3e75fa58	0.2402128
25	0xbdb8e8d5	-0.09028784
26	0xbe653f03	-0.22387318
27	0xbe434556	-0.19069418
28	0xbd737257	-0.059435215
29	0x3d9ee11b	0.07757779
30	0xbe91d257	-0.2848079
31	0xbdc6c55c	-0.09705612
32	0x3d92c5c2	0.071666256
33	0x3de74d64	0.11294058
34	0x3d9ff757	0.07810848
35	0xbd65ef5d	-0.056136478
36	0xbe8db147	-0.27674314
37	0xbe49e7c1	-0.19717313
38	0xbdb12d6b	-0.08651241
39	0x3e48bd57	0.19603477
40	0xbb82b793	-0.003989169
41	0xbe1206b8	-0.14260375
42	0xbeb71dd1	-0.35764936
43	0xbd9037af	-0.07041871
44	0x3d6d31ab	0.057908695
45	0x3e8c52eb	0.2740701
46	0xbe60cf9a	-0.21954194
47	0x3d246c52	0.040142365
48	0xbdf3970e	-0.11894046
49	0xbd8e1d23	-0.06939151
50	0x3e447ecf	0.19188999
51	0x3828486f	4.012178e-05
52	0xbdad2893	-0.084550045
53	0xbe9c142a	-0.30484134
54	0x3baf915f	0.0053579058
55	0x3c1631aa	0.009167114
56	0xbd213fe8	-0.039367586
57	0xbe038014	-0.12841827
58	0x3e9858a0	0.29755116
59	0x3dfdcbdd	0.123923995
60	0x3aec296a	0.0018017713
61	0xbd8640fa	-0.06555362
62	0xbdb0b736	-0.08628695
63	0xbe00295c	-0.12515777
64	0x3dd49fd3	0.103820466
65	0xbd2fe53c	-0.042943224
66	0xbe494768	-0.19656146
67	0x3d6dcac8	0.058054715
68	0x3b93cc47	0.0045104357
69	0xbe0b72a9	-0.13617958
70	0x3c9b4217	0.018952413
71	0x3e176497	0.14784466
72	0xbe106f19	-0.1410488
73	0xbe1badad	-0.15202971
74	0xbdbd98d2	-0.09257664
75	0xbe63cc6e	-0.22245952
76	0x3c35990c	0.0110838525
77	0xbdf4de44	-0.11956456
78	0xbe0e8e27	-0.13921414
79	0xbcfde6e5	-0.030993888
80	0xbe2e52c5	-0.17023762
81	0xbe44f257	-0.1923307
82	0xbe074040	-0.13208103
83	0x3da0d91f	0.078539126
84	0xbe827e6c	-0.25487077
85	0xbe0cbdca	-0.13744274
86	0xbde2cc07	-0.110740714
87	0xbe5154ab	-0.20442455
88	0x3d9d1015	0.07669083
89	0x3d34c0ac	0.04412906
90	0xbe0c5bba	-0.13706866
91	0xbcc34c79	-0.023840176
92	0x3e1b4f70	0.15167022
93	0xbda164b3	-0.07880535
94	0x3e0cb762	0.1374183
95	0xbd93d8b8	-0.0721907
96	0xbe49072b	-0.1963164
97	0xbd64f018	-0.055893034
98	0xbc87e00a	-0.016586322
99	0xbc58fc99	-0.013243818
100	0x3e596217	0.21228825
101	0xbdb7d4d4	-0.089761406
102	0xbe6635f5	-0.2248152
103	0xbd25d4ce	-0.04048615
104	0xbe1bfa60	-0.15232229
105	0xbe7c6c72	-0.24650744
106	0xbe502ab1	-0.20328785
107	0x3d5d94e1	0.05409706
108	0x3e467c64	0.19383389
109	0x3d05ba6c	0.03264849
110	0xbe6997ee	-0.22811863
111	0xbdfc54e1	-0.12320877
112	0xbd3b5577	-0.045735803
113	0xbe0d7c96	-0.13817057
114	0xbe246da4	-0.1605745
115	0x3e820143	0.25391588
116	0xbda91777	-0.08256429
117	0xbe55018f	-0.20801376
118	0xbce8cbf0	-0.028417557
119	0xbe459dc0	-0.19298458

feat_extractor.12.block.2.fc1.bias f4 [168]
0	0xbe30109e	-0.17193839
1	0xbe676ffb	-0.22601311
2	0x3e4029a7	0.18765889
3	0xbd872ab4	-0.06599942
4	0xbe185d74	-0.148794
5	0xbe3fe5bb	-0.18739979
6	0xbd8c39a2	-0.0684693
7	0x3d96ad2c	0.07357249
8	0xbdd6ba29	-0.10484726
9	0xbdae0e4f	-0.08498823
10	0x3d42cacf	0.047556695
11	0x3dc7c63a	0.097546056
12	0xbe149281	-0.14509012
13	0xbe22f0d2	-0.15912178
14	0xbdffa702	-0.12483026
15	0xbe51ba43	-0.2048121
16	0xbe492b3f	-0.19645403
17	0xbd9a9cd6	-0.07549445
18	0x3c46b747	0.012128658
19	0x3e91452a	0.2837308
20	0xbe035b76	-0.12827858
21	0x3e3df6cd	0.18551178
22	0xbe412e4e	-0.1886532
23	0x3b00bc2e	0.0019643414
24	0x3e3bbb7b	0.18333237
25	0xbe039e08	-0.12853253
26	0xbd800eca	-0.06252821
27	0xbe801070	-0.2501254
28	0xbc35ff4e	-0.011108233
29	0xbd241bd9	-0.04006562
30	0xbd6b6b77	-0.057475533
31	0xbc05d8b7	-0.008169345
32	0xbe1ee55c	-0.15517181
33	0xbd46a6dc	-0.048498973
34	0xbdb917d1	-0.09037746
35	0xbe6ad99e	-0.22934577
36	0xbe1103f2	-0.14161661
37	0xbe491e1e	-0.19640395
38	0xbd6126ad	-0.054968525
39	0xbe6131eb	-0.21991698
40	0xbe532daa	-0.20622888
41	0xbde6c011	-0.112671025
42	0xbe0f6ff9	-0.14007558
43	0xbe471c9f	-0.19444512
44	0xbe78226a	-0.24231878
45	0xbe27f410	-0.16401696
46	0xbe5684eb	-0.20949142
47	0x3e6dcebc	0.23223394
48	0xbd81f6f1	-0.063459285
49	0xbe1a8ba1	-0.15092327
50	0xbe1c4a99	-0.15262832
51	0x3ce5ee7e	0.028067823
52	0xbe095382	-0.13410762
53	0xbe4295a1	-0.19002391
54	0xbe22f0de	-0.15912196
55	0xbe58aa3e	-0.21158692
56	0xba94b342	-0.0011344927
57	0xbdf4ec64	-0.119591504
58	0xbc962e41	-0.018332602
59	0xbe0f8da6	-0.14018878
60	0xbda55e87	-0.0807467
61	0xbe4d4e85	-0.20049484
62	0x3b8a9b12	0.0042299116
63	0xbe3f68dc	-0.18692344
64	0x3eb2673d	0.3484439
65	0xbdc055ea	-0.09391387
66	0xbe06b093	-0.13153295
67	0x3daa0323	0.083013795
68	0xbe2af71d	-0.16695829
69	0x3d304242	0.04303194
70	0xbbbe8299	-0.0058139083
71	0xbe5a897c	-0.21341509
72	0xbe5cd15e	-0.21564242
73	0xbe07d87b	-0.13266174
74	0xbe062a44	-0.1310206
75	0xbe3cd9c6	-0.18442449
76	0x3df5ec75	0.12007991
77	0xbe499f83	-0.19689755
78	0x3bb2d0b9	0.0054570106
79	0xbe0bbd82	-0.1364651
80	0x3d352ad1	0.044230286
81	0xbe11e802	-0.1424866
82	0x3cf17133	0.029472923
83	0xbdf033ef	-0.117286555
84	0xbdd451cd	-0.10367165
85	0xbe7f53ea	-0.24934354
86	0xbd98461a	-0.07435246
87	0xbe3aab0a	-0.18229309
88	0xbddb5e57	-0.10711353
89	0xbe009019	-0.12554969
90	0xbdb5d4c1	-0.0887847
91	0xbe0d4c91	-0.13798739
92	0xbe411f22	-0.18859532
93	0xbe4e69b9	-0.20157517
94	0xbcd8391d	-0.026394421
95	0xbe20a971	-0.15689637
96	0x3d049021	0.032364015
97	0xbe147e4e	-0.14501306
98	0x3df962d8	0.12177056
99	0xbe1c148e	-0.15242216
100	0xbdcb6928	-0.09932166
101	0xbcd0d889	-0.025493877
102	0x3d13fdbe	0.03613066
103	0xbdc59405	-0.09647373
104	0xbe1123bf	-0.14173792
105	0xbcc09927	-0.023510529
106	0xbe426fc0	-0.18987942
107	0xbe00bec5	-0.12572773
108	0x3ed5fed0	0.4179597
109	0xbe07e273	-0.13269977
110	0x3e5773a3	0.21040206
111	0xbd9f5568	-0.07779962
112	0xbe1ba32b	-0.15198962
113	0x3d524224	0.051332608
114	0xbe0d6a12	-0.13809994
115	0xbdc1ca17	-0.09462374
116	0x3d5df9e2	0.054193385
117	0xbe232c26	-0.1593481
118	0xbe0a24c6	-0.1349059
119	0xbe537630	-0.20650554
120	0xbe5ebe95	-0.21752389
121	0x3dc08351	0.094000466
122	0x3c113af1	0.00886415
123	0x3d21bd82	0.03948737
124	0xbe09ee5d	-0.13469835
125	0xbd825ae5	-0.06364993
126	0xbe64f15b	-0.22357695
127	0xbe2c9022	-0.16851857
128	0xbe1fd421	-0.15608265
129	0xbe0b6461	-0.1361251
130	0xbe0fe7de	-0.14053294
131	0xbe29f486	-0.16597185
132	0x3d75a5dd	0.059972633
133	0xbd7db320	-0.061938405
134	0xbd205e48	-0.039152414
135	0xbd873f32	-0.066038504
136	0xbe3518bd	-0.17685218
137	0xbdfb3c1a	-0.12267323
138	0xbe4562d9	-0.19275989
139	0xbddbe35b	-0.10736724
140	0xbe53ef8e	-0.20696852
141	0x3cac64ca	0.021044154
142	0xbdec06ff	-0.11524772
143	0xbe20acbd	-0.15690894
144	0xbe1af400	-0.15132141
145	0xbe3ffdd0	-0.18749166
146	0xbd14f17e	-0.036363117
147	0xbdbeda4b	-0.0931898
148	0xbd999e9a	-0.07500954
149	0xbe099f84	-0.13439757
150	0xbde5a72e	-0.112135276
151	0xbe01bac1	-0.12668897
152	0xbe26ea32	-0.16300276
153	0xbe09e18a	-0.13464943
154	0xbdeb6d36	-0.1149544
155	0xbe5a28e2	-0.21304658
156	0xbe2c0c51	-0.16801573
157	0xbdc819c8	-0.097705424
158	0xbe3b7d92	-0.1830962
159	0x3e154b53	0.14579515
160	0xbe311506	-0.17293176
161	0x3d470e93	0.048597883
162	0xbdd6fda6	-0.10497598
163	0xbe156489	-0.14589132
164	0x3dfc2949	0.12312562
165	0xbe0428e5	-0.12906225
166	0xbe2dd113	-0.16974287
167	0xbe0544df	-0.13014553

feat_extractor.13.block.2.fc1.bias f4 [168]
0	0xbe49ca77	-0.1970614
1	0x3e2fef43	0.17181115
2	0x3db61c03	0.088920616
3	0xbe90379b	-0.28167424
4	0xbe6a3ee5	-0.22875555
5	0xbe861e34	-0.26194918
6	0xb9e4e9eb	-0.0004366183
7	0xbe36a9f9	-0.17838277
8	0xbeb5240b	-0.3537906
9	0xbe634f25	-0.2219816
10	0xbebaecf5	-0.3650891
11	0xbdc3ebcf	-0.09566461
12	0xbe3444d6	-0.17604384
13	0xbe721cf2	-0.23643854
14	0xbe860130	-0.2617278
15	0xbe48e4de	-0.19618556
16	0x3d6ab682	0.05730296
17	0xbe76d32d	-0.24103995
18	0xbe49aafe	-0.19694135
19	0xbe749c7e	-0.23887822
20	0x3c6c929d	0.014439252
21	0xbe074f03	-0.13213734
22	0xba214716	-0.0006152255
23	0x3e5ff10c	0.21869296
24	0xbe59a281	-0.21253397
25	0xbd3ae089	-0.04562429
26	0xbe0f2098	-0.13977277
27	0xbd1ff409	-0.03905109
28	0xbe12218c	-0.1427061
29	0xbeb60d04	-0.35556805
30	0xbe3bd370	-0.18342376
31	0xbe041997	-0.12900387
32	0xbe69326b	-0.22773139
33	0xbe795dbe	-0.24352166
34	0xbe250707	-0.16115962
35	0xbe58a51c	-0.21156734
36	0xbe9791e1	-0.29603484
37	0xbe41e005	-0.18933113
38	0x3e2b4d94	0.16728812
39	0xbe50f347	-0.20405303
40	0xbe16c248	-0.1472255
41	0xbe5dea75	-0.2167147
42	0xbe9cb6e7	-0.30608293
43	0xbe276b37	-0.16349493
44	0xbeb7527b	-0.35805115
45	0xbe399314	-0.18122512
46	0xbdebc82a	-0.11512788
47	0xbea25388	-0.31704354
48	0xbeb2a5ee	-0.3489222
49	0x3dafcaa1	0.0858357
50	0xbe8a0dab	-0.26963553
51	0x3e66a468	0.22523654
52	0xbc02ac6e	-0.007975681
53	0xbdc597d7	-0.09648102
54	0xbe17eaab	-0.14835612
55	0xbe3e48de	-0.18582484
56	0xbe3b9f1c	-0.18322414
57	0xbe539944	-0.20663935
58	0xbe99faf7	-0.30074283
59	0xbe2e22f7	-0.17005526
60	0xbe859e9e	-0.26097578
61	0xbe486f40	-0.19573689
62	0xbd0c0ab2	-0.034189887
63	0xbda14ea4	-0.07876328
64	0x3e66b29d	0.22529073
65	0xbe7a336d	-0.2443368
66	0xbe47ecf5	-0.19523986
67	0x3d4e4079	0.050354455
68	0xbead2d1e	-0.33823484
69	0xbe03f30b	-0.12885682
70	0xbe43c4fd	-0.19118114
71	0xbe0d826c	-0.13819283
72	0x3d105f37	0.035247054
73	0xbe52e447	-0.20594893
74	0xbeab94bb	-0.3351191
75	0x3d221949	0.039574895
76	0xbcc0ca95	-0.023534099
77	0xbe09b082	-0.13446239
78	0xbe56e6c2	-0.20986465
79	0xbdf06f06	-0.11739926
80	0xbecea937	-0.40363476
81	0xbe60e4e1	-0.2196231
82	0xbeac5d8d	-0.33665124
83	0xbeb6fc96	-0.35739583
84	0xbdd03040	-0.10165453
85	0xbe865093	-0.26233348
86	0xbe5b1b16	-0.21397051
87	0x3da38c4b	0.07985743
88	0x3e68c068	0.22729647
89	0xbe6d05b6	-0.2314671
90	0xbe9253c1	-0.28579524
91	0xbe2d6bdc	-0.16935676
92	0xbde340bb	-0.11096331
93	0xbdd38c0d	-0.10329447
94	0xbe071440	-0.13191319
95	0xbe0d3d1d	-0.13792844
96	0xbd89a37e	-0.06720637
97	0xbe8fdf19	-0.28099898
98	0xbe899104	-0.2686845
99	0xbea2a713	-0.31768093
100	0xbe3ee70c	-0.18642825
101	0xbe41452f	-0.18874048
102	0xbe3f06cd	-0.18654938
103	0x3dd6ebf5	0.10494224
104	0xbe210223	-0.15723471
105	0xbe95ff8b	-0.29296526
106	0xbe148bf9	-0.1450652
107	0x3d4d4507	0.050114658
108	0xbe710858	-0.23538339
109	0xbe52c5a1	-0.20583202
110	0xbe46d77c	-0.19418138
111	0xbdd45da7	-0.10369425
112	0xbdd107f5	-0.10206596
113	0xbe7f0f99	-0.24908294
114	0xbec17185	-0.3778192
115	0x3c80beea	0.015716035
116	0xbc61f087	-0.013790256
117	0x3ce23d9a	0.027617265
118	0xbe5e0da4	-0.21684891
119	0xb9d2ec38	-0.00040230318
120	0x3e4990d8	0.1968416
121	0xbe34cdde	-0.17656657
122	0xbe6595a4	-0.22420365
123	0xbe576c1e	-0.21037337
124	0xbe8ab1c8	-0.2708876
125	0xbe987e69	-0.29783943
126	0xbe172210	-0.14759088
127	0xbea82912	-0.32843834
128	0xbe8b5a8f	-0.27217528
129	0xbc0b984b	-0.008520196
130	0xbe8babcf	-0.27279517
131	0x3d4c3385	0.04985382
132	0xbe8fe9ac	-0.28107965
133	0xbd67e92f	-0.056618866
134	0xbe886508	-0.2663958
135	0xbe669058	-0.22516
136	0xbdf0da77	-0.11760419
137	0xbe83ba59	-0.2572811
138	0xbc7c7c60	-0.015410513
139	0xbcff0973	-0.031132435
140	0x3df97a0e	0.12181483
141	0xbe86e2b6	-0.26344842
142	0x3e55e652	0.20888641
143	0xbe3c395a	-0.18381253
144	0xbe50d173	-0.20392399
145	0xbe35a5ec	-0.17739075
146	0xbe5f5fd7	-0.21813904
147	0xbe9a8204	-0.3017732
148	0xbcd9ca5f	-0.026585756
149	0xbe93820c	-0.28810155
150	0xbe88e374	-0.26736033
151	0xbe367962	-0.17819741
152	0xbe1b97fa	-0.15194693
153	0xbd80ca25	-0.06288556
154	0x3e0595aa	0.13045374
155	0xbe1f3db8	-0.15550888
156	0x3d487c70	0.048946798
157	0xbcfc8fa0	-0.030830204
158	0xbe9c3175	-0.30506483
159	0xbe1b9056	-0.15191779
160	0xbe0e4fd5	-0.13897641
161	0xbd906166	-0.07049827
162	0x3d8d7d06	0.06908612
163	0x3e0d7af1	0.1381643
164	0x3aeaefc0	0.0017924234
165	0xbe641185	-0.22272308
166	0xbd8bc5c1	-0.06824828
167	0xbe3554a9	-0.17708077

feat_extractor.14.block.2.fc1.bias f4 [240]
0	0xbe38a01f	-0.18029831
1	0xbe20e080	-0.1571064
2	0xbe374966	-0.17899093
3	0x3f2d9bf9	0.6781612
4	0xbe0dafb2	-0.13836554
5	0xbe632b4a	-0.22184482
6	0xbe5af77c	-0.2138347
7	0xbe6e326a	-0.23261419
8	0xbe6ac333	-0.22926025
9	0xbe74677f	-0.23867606
10	0xbe047db7	-0.12938581
11	0xbe03ed43	-0.12883477
12	0xbe3f4de8	-0.18682063
13	0xbe4e0b47	-0.2012149
14	0xbe44ee0d	-0.19231434
15	0xbe3418aa	-0.17587534
16	0xbdc28408	-0.09497839
17	0xbe11435d	-0.14185853
18	0xbe523425	-0.20527704
19	0xbe5f39d0	-0.21799397
20	0xbe611093	-0.21978979
21	0x3e59d361	0.21272041
22	0xbddbc75f	-0.107313864
23	0xbe3ae5c4	-0.18251711
24	0xbe44a29a	-0.19202653
25	0xbe54f302	-0.20795825
26	0xbe43308f	-0.19061492
27	0xbda74766	-0.08167915
28	0xbe82e162	-0.25562578
29	0xbe41e8ec	-0.18936509
30	0xbe1ab3bb	-0.15107624
31	0xbe268212	-0.16260555
32	0xbe3e08ee	-0.18558094
33	0xbe5aae2e	-0.21355507
34	0xbd764f8b	-0.06013445
35	0xbe241924	-0.16025215
36	0xbe7ef74c	-0.24899024
37	0xbe36e576	-0.1786097
38	0xbe07fa48	-0.13279068
39	0xbe4180b8	-0.18896759
40	0xbe077bea	-0.13230863
41	0xbe2e0c19	-0.16996802
42	0xbe1515b2	-0.14559057
43	0xbe12407c	-0.14282411
44	0xbe34a36a	-0.17640463
45	0xbe488bbd	-0.19584556
46	0xbe23b59c	-0.15987247
47	0xbe821fca	-0.25414878
48	0xbe0432f8	-0.12910068
49	0xbe4a42aa	-0.19751993
50	0xbe0747f0	-0.13211036
51	0x3eb77044	0.3582784
52	0xbde7aa2e	-0.11311756
53	0xbe1e599e	-0.15463874
54	0xbe842696	-0.2581069
55	0xbe32dded	-0.1746747
56	0xbdcbbdf1	-0.09948338
57	0xbe1275d5	-0.14302762
58	0xbe79f646	-0.24410352
59	0xbe39e720	-0.18154573
60	0xbe1166e0	-0.141994
61	0xbe2a4c1b	-0.16630594
62	0xbe01a478	-0.12660396
63	0xbe12b45d	-0.14326616
64	0xbe20e44c	-0.15712088
65	0xbe24c5d6	-0.16091093
66	0xbe54c155	-0.20776875
67	0xbe323fad	-0.17407103
68	0xbe2109fc	-0.15726465
69	0xbe3a190d	-0.18173619
70	0xbe036ef3	-0.12835293
71	0xbdbe3d36	-0.09289019
72	0xbe11717d	-0.14203449
73	0xbe3ec57f	-0.18630026
74	0xbe83db01	-0.25753024
75	0xbe58cbd5	-0.21171506
76	0xbe4666d8	-0.1937517
77	0xbe0b5557	-0.13606773
78	0xbe474ece	-0.19463655
79	0xbe2a3176	-0.1662043
80	0xbe50e277	-0.2039889
81	0xbe435203	-0.19074254
82	0xbe5c14cb	-0.21492307
83	0xbdb21c3b	-0.08696791
84	0xbe5ae64d	-0.21376915
85	0xbe18f43e	-0.14936921
86	0xbdff7d9c	-0.1247513
87	0xbe26b1c4	-0.1627875
88	0xbe381f88	-0.17980778
89	0xbe4051fb	-0.18781273
90	0xbe09167b	-0.13387482
91	0xbe173ab9	-0.14768495
92	0xbe4bbdce	-0.19896623
93	0xbe535af9	-0.20640172
94	0xbe85ff41	-0.26171306
95	0xbe32d97a	-0.17465773
96	0xbe4c0eaf	-0.19927476
97	0xbd9eae87	-0.07748132
98	0xbe43eacb	-0.19132535
99	0xbe6f5fef	-0.2337644
100	0xbe061ea7	-0.1309763
101	0xbe0a3c4b	-0.13499562
102	0xbe69e7d4	-0.22842342
103	0xbe056dc9	-0.13030161
104	0xbe78fb84	-0.24314696
105	0xbe267258	-0.16254556
106	0xbdc631c1	-0.096774586
107	0xbe22f8f8	-0.15915287
108	0xbe2b1589	-0.16707434
109	0xbe2fbe05	-0.1716233
110	0xbe45d12e	-0.19318077
111	0xbe149690	-0.1451056
112	0x3ead05eb	0.33793578
113	0xbe5c2e17	-0.21501957
114	0xbdd07b6f	-0.10179793
115	0xbe64078b	-0.22268502
116	0xbe73a9b3	-0.23795204
117	0xbdb8b033	-0.09017982
118	0xbe26a7d9	-0.16274966
119	0xbe177080	-0.14789009
120	0xbdfd3df5	-0.12365333
121	0xbe754aea	-0.23954359
122	0xbde57ae0	-0.11205077
123	0xbe4bdcb2	-0.19908407
124	0xbe31005f	-0.17285298
125	0xbe391561	-0.18074562
126	0xbdfd85d5	-0.12379042
127	0xbe555305	-0.2083245
128	0xbe0061ce	-0.1253731
129	0xbe00f7c2	-0.12594512
130	0xbe1022e8	-0.14075816
131	0xbe37df08	-0.17956173
132	0xbe6ff30b	-0.23432557
133	0xbe340cb7	-0.17582975
134	0x3eab08da	0.3340519
135	0xbe2f6c39	-0.17131127
136	0xbe389865	-0.18026884
137	0xbe1830cf	-0.14862369
138	0xbe3c4e47	-0.18389235
139	0xbe4801aa	-0.19531885
140	0xbe399b66	-0.18125686
141	0xbe368bc9	-0.17826761
142	0xbe58b2c8	-0.2116195
143	0xbe36d68b	-0.17855279
144	0xbe646597	-0.22304378
145	0xbdc343c3	-0.09534409
146	0xbe4ad3a2	-0.19807294
147	0xbe1985d3	-0.14992456
148	0x3eaaf561	0.33390334
149	0xbe52756c	-0.20552605
150	0xbdcbf729	-0.099592514
151	0xbe769be9	-0.24082913
152	0xbe4dc957	-0.20096336
153	0xbd2153b5	-0.03938647
154	0xbe53cb93	-0.20683126
155	0x3eadc105	0.33936325
156	0xbe6c7255	-0.23090489
157	0xbe46ffd9	-0.19433536
158	0xbe1d1b30	-0.15342402
159	0xbe70b714	-0.23507339
160	0xbe233b1f	-0.15940522
161	0xbe1efa94	-0.15525275
162	0xbe13c1c1	-0.1442938
163	0xbdca6b01	-0.098836906
164	0xbe45bd06	-0.19310388
165	0xbe53e0d3	-0.20691232
166	0xbe38503f	-0.17999361
167	0xbe2a3ba1	-0.16624309
168	0xbe3c8a64	-0.18412167
169	0xbe60250c	-0.21889132
170	0xbe4df414	-0.2011264
171	0xbe860fd3	-0.26183948
172	0x3ea1a1f5	0.31568876
173	0xbe33ecee	-0.1757085
174	0xbe192bb4	-0.14958078
175	0xbe16f505	-0.14741905
176	0xbe29712a	-0.16547075
177	0xbe6fa183	-0.23401456
178	0xbe21af94	-0.15789634
179	0xbe1b8615	-0.15187867
180	0xbe388c02	-0.18022159
181	0xbe60d6d6	-0.21956953
182	0xbe104cfd	-0.14091869
183	0xbe48ecb1	-0.1962154
184	0xbe446f1b	-0.19183008
185	0xbe4fd16c	-0.20294732
186	0xbe30277f	-0.17202567
187	0xbe229b9a	-0.1587967
188	0xbe1fd1a4	-0.15607315
189	0xbe0e8ba7	-0.1392046
190	0x3e12f94b	0.1435291
191	0xbe4eb62f	-0.20186685
192	0xbe17c51c	-0.14821285
193	0xbe23c628	-0.1599356
194	0xbe4b2899	-0.19839706
195	0xbe48e62b	-0.19619052
196	0xbe5191f1	-0.20465828
197	0xbe2b283c	-0.16714567
198	0xbe074f89	-0.13213934
199	0xbdd8a765	-0.10578803
200	0xbe110d59	-0.14165248
201	0xbe6b206a	-0.22961584
202	0xbe0197a6	-0.12655506
203	0xbe1c3c5e	-0.15257403
204	0xbe6fa080	-0.2340107
205	0xbe4a51c0	-0.19757748
206	0xbe4a98df	-0.19784878
207	0x3eff4f31	0.49865106
208	0xbe0b9cc1	-0.13634016
209	0xbe04a363	-0.12952952
210	0xbe14b42a	-0.14521852
211	0xbe487694	-0.19576484
212	0xbe0e219e	-0.13880011
213	0xbdb2e5ff	-0.087352745
214	0xbe17f997	-0.14841305
215	0xbe0d14e6	-0.13777503
216	0xbe4af90d	-0.19821568
217	0x3f033dbf	0.5126609
218	0xbe12dbda	-0.14341679
219	0xbdad6f69	-0.084685154
220	0xbe1e5175	-0.15460761
221	0xbe5ef001	-0.21771242
222	0xbe4803ab	-0.19532649
223	0xbe0d2b8a	-0.1378614
224	0xbe864096	-0.2622115
225	0xbe5e28c1	-0.21695234
226	0xbe50b32c	-0.20380849
227	0xbe103236	-0.14081654
228	0xbe0df706	-0.13863763
229	0xbe19cccf	-0.15019535
230	0xbe733061	-0.23748924
231	0xbe602d17	-0.218922
232	0xbe34904d	-0.17633171
233	0xbdde0e7f	-0.10842609
234	0xbe43bc94	-0.19114906
235	0xbdf6d36b	-0.120520435
236	0xbe5ebc61	-0.21751548
237	0x3e6a9150	0.22906995
238	0xbe1e061c	-0.15432018
239	0xbe5ae0dc	-0.2137484

feat_extractor.15.block.2.fc1.bias f4 [240]
0	0xbdb162a0	-0.08661389
1	0xbea74988	-0.32673287
2	0xbdab9afe	-0.08379172
3	0xbdc80ac0	-0.097676754
4	0xbe514f52	-0.20440415
5	0xbe1bcd1c	-0.15214962
6	0xbdca6a19	-0.09883518
7	0xbe394f6f	-0.18096708
8	0xbe8a07f7	-0.26959202
9	0xbe68cdd7	-0.22734772
10	0xbeaf99e5	-0.342971
11	0x3e412258	0.18860757
12	0xbe771480	-0.24128914
13	0xbeb718df	-0.35761163
14	0xbe24065d	-0.16018052
15	0xbe6d3c29	-0.2316748
16	0xbe3d8650	-0.18508267
17	0xbe9005ce	-0.2812943
18	0xbe3a58d6	-0.1819795
19	0xbe81e417	-0.2536933
20	0xbeb01726	-0.3439266
21	0xbed48e3e	-0.41514772
22	0xbeb59c66	-0.35470885
23	0xbe50782a	-0.20358339
24	0xbe465d1c	-0.19371456
25	0xbe653b4c	-0.22385901
26	0xbe877c33	-0.26461944
27	0xbe5278be	-0.20553872
28	0xbe899944	-0.26874745
29	0xbdf12201	-0.11774064
30	0x3f1971ac	0.59939075
31	0xbe50b52a	-0.20381609
32	0xbebca9e9	-0.3684838
33	0xbe3bc55f	-0.1833701
34	0xbea2788a	-0.3173259
35	0x3eed78f8	0.46381354
36	0xbe962304	-0.2932359
37	0xbe7a3620	-0.2443471
38	0xbeadfb99	-0.33981016
39	0xbeb0a5d2	-0.3450151
40	0xbeadbb3d	-0.33931914
41	0xbe7eb48b	-0.24873559
42	0xbe70a965	-0.23502119
43	0xbea7cdaf	-0.32774112
44	0xbe5971d4	-0.21234828
45	0xbda8c132	-0.08239974
46	0xbe7198fc	-0.23593515
47	0xbe50d162	-0.20392373
48	0xbeaae2d4	-0.3337618
49	0x3e566459	0.20936717
50	0xbe68e949	-0.22745241
51	0xbe2f3541	-0.17110159
52	0xbe3991ff	-0.181221
53	0xbea498ed	-0.32147923
54	0xbe4fb9a0	-0.20285654
55	0xbe712f18	-0.23553121
56	0xbe4a7ff6	-0.19775376
57	0xbde7ca8b	-0.11317929
58	0xbe8273ca	-0.25478965
59	0xbe65c7f6	-0.2243956
60	0x3e99355d	0.29923525
61	0xbe9da41a	-0.30789262
62	0xbeb55f37	-0.35424206
63	0xbe36d69e	-0.17855307
64	0xbe6bc096	-0.23022684
65	0xbe9eab9c	-0.30990303
66	0xbe7a4b91	-0.24442889
67	0x3f045dd6	0.5170568
68	0xbeb9c73c	-0.36284816
69	0x3e8ab8ec	0.2709421
70	0xbe860a52	-0.2617975
71	0xbdbe06e3	-0.09278657
72	0xbe7f0b83	-0.24906735
73	0xbe86a72c	-0.26299417
74	0xbea2c7b2	-0.3179298
75	0x3ec98777	0.39361164
76	0xbe53453c	-0.2063188
77	0xbe5372cf	-0.20649265
78	0xbe89bf4a	-0.26903754
79	0xbe2c51cb	-0.16828077
80	0xbe39c9f7	-0.1814345
81	0xbe8ac106	-0.2710039
82	0xbea26ef7	-0.31725284
83	0xbe3a2769	-0.18179096
84	0xbe3944d6	-0.18092665
85	0xbe695ecf	-0.22790073
86	0x3f127496	0.57209146
87	0xbe7b9892	-0.2456992
88	0xbe927e1e	-0.28611845
89	0x3e852a55	0.2600886
90	0x3f35183c	0.70740104
91	0x3e9f0645	0.3105947
92	0xbe7fa082	-0.24963573
93	0x3e8d551c	0.27603996
94	0xbd8ddb5f	-0.06926607
95	0xbe5a922b	-0.21344821
96	0xbd7f78ac	-0.06237094
97	0xbe9b043a	-0.30276662
98	0xbe233a18	-0.1594013
99	0xbde55cb7	-0.111993246
100	0x3e9bf9f6	0.30464143
101	0xbe6a3b3d	-0.2287416
102	0xbe882644	-0.26591694
103	0xbe7d5c73	-0.24742298
104	0x3ebd9d2e	0.3703398
105	0xbe11099f	-0.14163826
106	0xbe2ac5ed	-0.16677065
107	0xbe7c28c6	-0.24624929
108	0xbdf8039f	-0.12110066
109	0xbdf2d636	-0.11857264
110	0xbe6727f6	-0.22573838
111	0xbe4b663c	-0.19863218
112	0xbe317a7a	-0.17331877
113	0x3e63f32e	0.22260734
114	0xbe402c1d	-0.18766828
115	0xbe669f7b	-0.22521774
116	0xbead2e51	-0.338244
117	0xbe1249ae	-0.14285919
118	0xbe5ca43f	-0.2154703
119	0xbe31f5cf	-0.17378925
120	0xbe8c2c44	-0.27377522
121	0xbe708799	-0.23489226
122	0xbe8049b5	-0.25056234
123	0xbe693737	-0.22774969
124	0xbeb3645a	-0.350375
125	0xbe4709e7	-0.19437371
126	0xbe3bfd44	-0.18358332
127	0xbe870d6b	-0.26377425
128	0x3f323f5a	0.69627917
129	0xbc0d914c	-0.0086405985
130	0xbea1c653	-0.31596622
131	0xbe383547	-0.17989074
132	0xbe492402	-0.19642642
133	0xbe70ef16	-0.23528704
134	0xbe85b88f	-0.2611737
135	0x3e542829	0.20718445
136	0xbd632d65	-0.055463213
137	0xbe096e06	-0.13420877
138	0xbe2acccc	-0.16679686
139	0xbe7dc618	-0.24782598
140	0x3e601959	0.2188467
141	0xbe884f13	-0.2662283
142	0xbe8d9743	-0.27654466
143	0xbe45c4a0	-0.19313288
144	0xbeaefe6f	-0.34178492
145	0xbe9c8c9c	-0.30576026
146	0xbeb882b8	-0.3603723
147	0xbe5d81fd	-0.21631618
148	0xbe16634c	-0.14686316
149	0x3e9f9102	0.3116532
150	0xbeb15261	-0.34633163
151	0xbeba7cb7	-0.36423275
152	0xbe9adfbb	-0.30248818
153	0xbe84ab8d	-0.25912133
154	0xbe15b03b	-0.14618008
155	0xbe8802d6	-0.26564664
156	0xbe8d2118	-0.2756431
157	0xbe8aaca3	-0.27084836
158	0xbe073b64	-0.1320625
159	0xbe800248	-0.2500174
160	0xbe84ef3c	-0.2596377
161	0xbe63bb21	-0.22239353
162	0xbe8feeb3	-0.281118
163	0xbe35d782	-0.17757991
164	0xbdd5c091	-0.1043712
165	0xbe1754ef	-0.14778493
166	0xbeb6cc1d	-0.357026
167	0xbe2bfaed	-0.1679494
168	0xbebbfcb3	-0.36716232
169	0x3f01b849	0.5067182
170	0xbece526a	-0.40297252
171	0xbda2432b	-0.079229675
172	0xbeb844f1	-0.35990098
173	0xbde4ca45	-0.11171392
174	0xbe4aeb1b	-0.19816248
175	0xbe507d40	-0.20360279
176	0xbe9ab066	-0.30212706
177	0xbe8578ba	-0.2606867
178	0xbe3237b3	-0.1740406
179	0xbe957e71	-0.2919803
180	0xbe504ba1	-0.2034135
181	0x3dbbf055	0.09176699
182	0xbe6b5b0e	-0.22983953
183	0xbeaf69e1	-0.34260467
184	0xbe9b2e57	-0.30308792
185	0xbea90ee1	-0.33019164
186	0x3f1c215d	0.6098841
187	0xbd9ef90f	-0.07762348
188	0x3ef66497	0.4812362
189	0xbe5f4557	-0.21803795
190	0xbe8162d6	-0.25270718
191	0xbe64ca8b	-0.22342889
192	0xbdc76ce2	-0.097375646
193	0xbe32572e	-0.17416069
194	0xbe65accd	-0.224292
195	0xbe023bd9	-0.12718143
196	0xbe95aa5a	-0.2923153
197	0xbea4d64a	-0.3219474
198	0xbe611870	-0.21981978
199	0xbe88f22e	-0.26747268
200	0xbe4f59c6	-0.2024909
201	0xbe7f7269	-0.24945988
202	0xbe8c5d5d	-0.2741498
203	0xbe67c340	-0.22633076
204	0xbe48419c	-0.19556278
205	0xbe2d70a8	-0.16937506
206	0xbe8748eb	-0.2642282
207	0xbe4759e3	-0.19467883
208	0xbe3566b8	-0.17714965
209	0xbea2ad60	-0.317729
210	0xbe596d54	-0.21233112
211	0xbe72f152	-0.23724869
212	0xbed7a485	-0.42117706
213	0xbe884b25	-0.2661983
214	0xbe012fa2	-0.12615827
215	0xbe4fda20	-0.20298052
216	0xbe8bef92	-0.27331215
217	0xbeb93c55	-0.36178842
218	0xbe40e184	-0.18836027
219	0xbe3d232e	-0.18470451
220	0xbe4cc31d	-0.19996305
221	0xbe444471	-0.19166733
222	0xbe86fbfe	-0.2636413
223	0xbe088bb9	-0.1333455
224	0xbe91dd34	-0.28489077
225	0xbe0e4df6	-0.13896927
226	0xbd73a3d1	-0.0594824
227	0xbe0f1ec2	-0.13976577
228	0x3ea4b530	0.32169485
229	0xbe3abe90	-0.18236756
230	0xbe5cf44f	-0.21577571
231	0xbe8acb8f	-0.27108428
232	0xbe302611	-0.17202021
233	0xbe5cb02e	-0.21551582
234	0xbeaf6448	-0.34256196
235	0xbe28c361	-0.16480781
236	0xbe467383	-0.19380002
237	0x3f10602e	0.5639676
238	0xbea5da67	-0.3239319
239	0xbeb1d965	-0.3473617

prob_head.4.weight f4 [64]
0	0x3f140822	0.5782491
1	0x3f5c0afd	0.85954267
2	0x3f6f5b21	0.93498427
3	0x3fa48d08	1.2855539
4	0x3f95e4ad	1.1710411
5	0x3f7d23d2	0.9888278
6	0x3f30ad25	0.690142
7	0x3f78ef1f	0.9723987
8	0x3f9546d2	1.1662238
9	0x3ef9996c	0.48749864
10	0x3f84b708	1.0368357
11	0x3f59121d	0.84793264
12	0x3f219bc5	0.6312831
13	0x3f3db829	0.7410913
14	0x3fb1ee4f	1.3900851
15	0x3f519ba5	0.8187812
16	0x3f31a856	0.69397485
17	0x3f81df7a	1.0146325
18	0x3f4561ec	0.7710254
19	0x3f1ac723	0.6046011
20	0x3f63ade7	0.8893723
21	0x3fa3ed30	1.2806759
22	0x3f59b454	0.85040784
23	0x3f91f4fb	1.1402887
24	0x3f5b6831	0.8570586
25	0x3f6989c2	0.91225827
26	0x3fb46f26	1.409642
27	0x3f521737	0.82066673
28	0x3fb9d9a6	1.4519546
29	0x3f911c14	1.1336694
30	0x3f66ed12	0.9020549
31	0x3f21ce47	0.6320538
32	0x3f2e1385	0.67998534
33	0x3f19c4f5	0.6006616
34	0x3f6182eb	0.8809039
35	0x3f4ca8fe	0.7994536
36	0x3f79e6cd	0.976178
37	0x3f1893c9	0.596005
38	0x3faf10c2	1.3676989
39	0x3f87b73d	1.0602795
40	0x3f2288f7	0.6349024
41	0x3f968dd0	1.1762028
42	0x3f6006e8	0.8751054
43	0x3f146118	0.57960653
44	0x3f568e7f	0.8381118
45	0x3fa66c8d	1.3001877
46	0x3f59c764	0.8506987
47	0x3f8535c0	1.0407028
48	0x4093d486	4.619693
49	0x3f84b2bc	1.0367045
50	0x400bb736	2.1830573
51	0x3f382b67	0.71941227
52	0x3f6fe2e1	0.93705565
53	0x3f4a19ba	0.78945506
54	0x3f527805	0.82214385
55	0x3f41b3b8	0.75664854
56	0x3f4ec995	0.8077634
57	0x3f834fc1	1.0258714
58	0x3f87b981	1.0603486
59	0x3efbbd2c	0.49167764
60	0x3f7bd6a7	0.9837441
61	0x3f845790	1.0339222
62	0x3f1383c7	0.5762295
63	0x3f358b2c	0.70915484

prob_head.4.bias f4 [64]
0	0xbdee3398	-0.116309345
1	0xbe0ba145	-0.13635738
2	0xbe7c3b25	-0.24631937
3	0xbd86769a	-0.0656559
4	0x3be16dbf	0.006879538
5	0x3d48c2db	0.049013954
6	0xbc51c32f	-0.012802883
7	0xbdb0865e	-0.086193785
8	0x3dcfda72	0.10149087
9	0x3c5c21c9	0.013435789
10	0x3e0efc36	0.13963398
11	0xbe02f85c	-0.12790054
12	0x3d72bdb4	0.059262946
13	0x3e1084aa	0.14113107
14	0xbc581ff3	-0.013191211
15	0xbd70c2e9	-0.05877963
16	0x3d715785	0.058921356
17	0x3e590d25	0.2119642
18	0xbe14c053	-0.14526491
19	0x3cb3cb3a	0.021947492
20	0xbdfe2eae	-0.12411247
21	0x3daf355a	0.08555098
22	0xbd7d883f	-0.061897513
23	0x3e08837c	0.13331407
24	0xbda30b58	-0.07961148
25	0xbddc414d	-0.10754643
26	0x3a9ea2ae	0.0012102926
27	0xbe07b4e0	-0.13252592
28	0x3d932e6a	0.07186587
29	0x3d8e4c26	0.06948118
30	0xbe3bfd3e	-0.18358323
31	0xbe1be4b2	-0.15223959
32	0xbdd0e178	-0.10199255
33	0xbdc23183	-0.094821
34	0xbe3167f4	-0.17324811
35	0x3d964090	0.07336533
36	0xbe28c687	-0.16481982
37	0x3e3dd008	0.18536389
38	0xbd4d9dc0	-0.05019927
39	0x3d2e31a8	0.042527825
40	0xbd6a7cbd	-0.057247866
41	0x3dbed87d	0.093186356
42	0x3db80473	0.089852236
43	0x3d20463a	0.039129473
44	0x3d87746e	0.06614004
45	0x3d9b436b	0.07581218
46	0xbe1cfbaf	-0.15330385
47	0x3dcc7e87	0.09985071
48	0x3e04ad2f	0.1295669
49	0x3e62f377	0.22163187
50	0x3ec84fe2	0.39123446
51	0xbdd7edc4	-0.10543397
52	0xbdff2f61	-0.12460209
53	0x3e0ad56f	0.13557981
54	0xbe864dfb	-0.2623137
55	0x3e0cd942	0.13754752
56	0x3dda5339	0.10660405
57	0x3e5ae966	0.21378097
58	0xbdef9ce9	-0.1169985
59	0x3d92be0c	0.07165155
60	0x3d305792	0.043052264
61	0xbe17e636	-0.14833912
62	0xbdcb0f51	-0.09915031
63	0x3daf8511	0.08570302

prob_head.4.running_mean f4 [64]
0	0xbfee518f	-1.861864
1	0xbfe05dd5	-1.7528635
2	0x3c1b39c5	0.009474223
3	0xbb801ec9	-0.00390992
4	0xbe08c5b5	-0.13356669
5	0xbf326db7	-0.6969866
6	0xbf13c9a0	-0.5772953
7	0xbfafc034	-1.3730531
8	0xbef36d02	-0.47544104
9	0xbf2d78ac	-0.67762256
10	0xbeb77a71	-0.35835603
11	0xbfad23ec	-1.3526587
12	0xbf1bb83a	-0.6082798
13	0xbf4aa8b5	-0.79163677
14	0x3e3393c4	0.17536837
15	0xbeaee55b	-0.3415936
16	0x3e9b45a3	0.30326566
17	0xc001f4fa	-2.0305772
18	0xbfa8ea3b	-1.3196481
19	0xbd837a47	-0.06419807
20	0xbfc9a43d	-1.5753247
21	0xbf614c2f	-0.8800687
22	0xbfebffd9	-1.8437454
23	0xbe9b24d5	-0.30301538
24	0xbf85df86	-1.0458839
25	0xbfbcc973	-1.4748977
26	0x3f3d84fa	0.7403103
27	0xbf55464a	-0.8331038
28	0xbe47108a	-0.19439903
29	0xbfc56850	-1.5422459
30	0xc00a8751	-2.164509
31	0xc00e0494	-2.2190294
32	0xbff8b234	-1.9429383
33	0xbf921dfa	-1.1415398
34	0x3efdc05c	0.4956082
35	0xbf45f72b	-0.77330273
36	0xbf0f6b9f	-0.5602359
37	0xbf5edbd7	-0.870542
38	0x3ec77f09	0.38964108
39	0xbf441ce4	-0.76606584
40	0xbfb212a3	-1.3911937
41	0xbe88d3bb	-0.26724038
42	0xbf8928a8	-1.0715532
43	0xbf7038a6	-0.9383644
44	0xbe65fe10	-0.22460198
45	0x3e2137ea	0.15743986
46	0xc0236759	-2.5531828
47	0xbf8d7f91	-1.1054555
48	0x3edb809f	0.42871568
49	0xbf9f6644	-1.2453084
50	0x402ae39b	2.670142
51	0xbf8fcbed	-1.1234108
52	0xc012f49e	-2.2961802
53	0xbfa92414	-1.3214135
54	0x3e1893cf	0.14900135
55	0x3f5d869c	0.8653352
56	0xbec3f88d	-0.38275567
57	0xbdcb80d7	-0.099366836
58	0xbfb7c804	-1.4357915
59	0xbe9f7809	-0.31146267
60	0xbfdd6989	-1.7297832
61	0xbed9de7d	-0.42552558
62	0xbfce5993	-1.6121086
63	0x3d297036	0.04136678

prob_head.4.running_var f4 [64]
0	0x41f22aa9	30.27083
1	0x4221d865	40.461323
2	0x41518119	13.094018
3	0x423925ed	46.287037
4	0x420f1e9d	35.779896
5	0x423e2802	47.53907
6	0x41c16809	24.175798
7	0x42091806	34.27346
8	0x420fb0aa	35.922523
9	0x42353572	45.302193
10	0x422a1ae9	42.52628
11	0x41e069dd	28.051691
12	0x4210ba62	36.182014
13	0x4228c0bc	42.188217
14	0x429d61e9	78.69123
15	0x4218331c	38.04991
16	0x42413e6c	48.31096
17	0x421d38f9	39.305637
18	0x41aa5f27	21.296461
19	0x420d7a22	35.36927
20	0x41fa58a7	31.293287
21	0x41e5116a	28.633503
22	0x422b25b9	42.78684
23	0x421e9e8e	39.65484
24	0x4221d131	40.45429
25	0x41bcdce8	23.607864
26	0x423d6245	47.345966
27	0x41ef3dcf	29.90518
28	0x41dc5d6d	27.545618
29	0x42056b09	33.354527
30	0x420640d0	33.563293
31	0x42084137	34.063686
32	0x4230fdc3	44.247814
33	0x41bc5e9b	23.546194
34	0x41b3dbb2	22.482273
35	0x4225b191	41.423405
36	0x41d5e1ca	26.735249
37	0x415aedfc	13.683102
38	0x42a9ab79	84.83491
39	0x4239673f	46.350826
40	0x4219af08	38.42093
41	0x425e9ab1	55.651066
42	0x41e94b3a	29.161732
43	0x420f0717	35.756924
44	0x41c5f04a	24.742329
45	0x42388352	46.128242
46	0x424f0c2a	51.76188
47	0x42012877	32.289516
48	0x430a8d2b	138.55144
49	0x41fbcc45	31.474741
50	0x42af4178	87.62787
51	0x418bc096	17.469036
52	0x4220edaa	40.232094
53	0x420954f6	34.33297
54	0x41b6b572	22.838596
55	0x4262a740	56.66333
56	0x423ec9c4	47.697037
57	0x41fc5b84	31.544685
58	0x420b33d8	34.80063
59	0x41ad9338	21.696884
60	0x41f74f0c	30.913597
61	0x41cc429b	25.532522
62	0x41f160a4	30.172188
63	0x41eecdc2	29.850468

onnx::Conv_640 f4 [16]
0	0x3fcabcde	1.5838888
1	0x3f73032e	0.94926727
2	0x3ff029d5	1.8762766
3	0x40222246	2.533342
4	0x4001ac91	2.0261576
5	0x3e74b5e5	0.23897512
6	0xbe399a38	-0.18125236
7	0x4001a37a	2.0256028
8	0x3ff1c62c	1.8888602
9	0x4001074b	2.0160701
10	0x4004b002	2.0732427
11	0x400bc795	2.1840565
12	0x3fb73606	1.4313362
13	0x3f7c2953	0.98500556
14	0xbebe57a5	-0.37176242
15	0xc0055179	-2.0830977

onnx::Conv_642 f4 [16, 1, 3, 3]
0	0xbd3cebb6	-0.04612323
1	0xbdad0c28	-0.08449584
2	0xbd8207f3	-0.063491724
3	0xbdaf5241	-0.085606106
4	0x40237646	2.5540938
5	0x3d6fcb74	0.058543637
6	0xbea38128	-0.31934476
7	0xbf9763e2	-1.1827357
8	0xbd4834d7	-0.048878517
9	0xbfc910ae	-1.5708215
10	0xbf8ea102	-1.1142886
11	0x3ea18176	0.31544083
12	0xc1b2ee88	-22.36647
13	0x4075a1c8	3.8379993
14	0x4181cb51	16.224276
15	0x3f446adb	0.7672555
16	0x408e68b9	4.4502835
17	0x3f5d403e	0.8642615
18	0xbd97b3e8	-0.07407361
19	0xbc87b42f	-0.01656541
20	0xbc7529a8	-0.014963545
21	0xc04ca682	-3.1976628
22	0x402baa09	2.6822531
23	0x3f2f708f	0.68531126
24	0xbd3b8381	-0.04577971
25	0xbc4d150e	-0.012517227
26	0xbcf94ae0	-0.030431211
27	0xbdc5f1ba	-0.09665246
28	0xbe0819d2	-0.132911
29	0xbd9b38e1	-0.07579208
30	0xbd279375	-0.04091211
31	0x3fdb5a72	1.7136977
32	0xbd8c18f5	-0.06840698
33	0x3c959f98	0.018264577
34	0xbf7a3a17	-0.9774489
35	0xbc89d902	-0.01682711
36	0xbceb208d	-0.028702045
37	0x3d876177	0.06610387
38	0xbd80816d	-0.06274686
39	0x3d9aa59d	0.075511195
40	0xbf7cd0e0	-0.9875622
41	0x3f61e2e8	0.88236856
42	0x3b7602fa	0.0037538395
43	0x3c79d5a8	0.0152486935
44	0xbceaf237	-0.02867995
45	0xbf933e5e	-1.1503408
46	0xc1b8b70f	-23.089384
47	0xc0daa5fe	-6.8327627
48	0x40c4a330	6.1449203
49	0x4079e6d7	3.9047143
50	0xc0fa45a5	-7.8210015
51	0xbf3973f6	-0.7244257
52	0x41cc15bf	25.510618
53	0x3eb46b90	0.35238314
54	0x3f13382e	0.575076
55	0x4003b822	2.0581136
56	0xbff4ce13	-1.9125389
57	0x402db37a	2.7140794
58	0x3fa83465	1.314099
59	0xc05cc1bd	-3.4493248
60	0xbb2d85c8	-0.0026477445
61	0x3fe8f5e5	1.8200041
62	0xc041efe1	-3.030266
63	0xbe1ed2fd	-0.15510173
64	0xbee9221f	-0.45533845
65	0xbd3f7fb0	-0.04675263
66	0x3e60334a	0.21894565
67	0x3d7dceea	0.061964907
68	0x3ea3c28a	0.3198436
69	0xbd4cfb32	-0.050044246
70	0xbe56c6d3	-0.20974283
71	0x3d845709	0.06461913
72	0xbe3aa332	-0.18226317
73	0x3df7c831	0.1209873
74	0x3da96edb	0.08273097
75	0xbf890bee	-1.0706766
76	0x3f37086d	0.7149723
77	0x3bacdb59	0.0052751717
78	0x3be2199e	0.0069000265
79	0xbba85262	-0.005136774
80	0xbc4754ce	-0.012166215
81	0xbd19d20e	-0.03755384
82	0xbc64648f	-0.013939991
83	0x3cdacf08	0.026710048
84	0xbd851aeb	-0.06499275
85	0x3fa0c37b	1.2559656
86	0xbf7bedef	-0.9840993
87	0xbcfade97	-0.030623717
88	0xbd0b10b5	-0.03395148
89	0xbc3b2a32	-0.011423634
90	0x3a35b828	0.00069320435
91	0xbeae0831	-0.33990625
92	0xbdae8976	-0.08522312
93	0xbe3f4b02	-0.18680957
94	0x3f6ea8cc	0.93226314
95	0xbdf9c0c0	-0.12194967
96	0xbda4bf16	-0.08044259
97	0xbc64673d	-0.01394063
98	0xbd7d9616	-0.06191071
99	0xbcda7cfa	-0.026670922
100	0x3bbc0093	0.005737373
101	0xbc6c02f0	-0.014404997
102	0xbee7c37a	-0.45266324
103	0xbfc0e361	-1.506939
104	0x3ff99757	1.949931
105	0xbccca83e	-0.024982568
106	0x3d9bb7f7	0.07603448
107	0xbd1d7d8c	-0.03844981
108	0xbdf6e1af	-0.120547645
109	0x3f1ba0ee	0.60792434
110	0x3fb5152b	1.4147085
111	0x3e5c6c88	0.21525776
112	0xbfb169b8	-1.3860388
113	0x4030aeef	2.760677
114	0xbf66a926	-0.9010185
115	0xbff55e5f	-1.9169425
116	0xbeeaf9cc	-0.45893705
117	0xbd9a66c7	-0.075391345
118	0xbe0fb2ca	-0.14033046
119	0xbea92608	-0.33036828
120	0xbebe6038	-0.37182784
121	0xbfd08a77	-1.6292256
122	0x3c89e364	0.016832061
123	0xbedb8287	-0.42873022
124	0xbe90db87	-0.28292486
125	0x40686b38	3.631544
126	0xbe9b7d03	-0.30368814
127	0x3e64515a	0.22296658
128	0x3e8498d8	0.2589786
129	0x4055fb6f	3.3434713
130	0x3d9de1b0	0.07709062
131	0xbfb6e9a3	-1.429005
132	0x40a8f10e	5.2794256
133	0x409d2209	4.9104047
134	0xc0b72bed	-5.724112
135	0xbe813aa5	-0.25240055
136	0x4074681d	3.8188546
137	0x3f310546	0.6914867
138	0x3fa9b19f	1.3257331
139	0xbf0bb5a9	-0.54574066
140	0xbec050b1	-0.37561563
141	0x3d522c7d	0.05131196
142	0xbf26d55a	-0.651693
143	0xbd961fdf	-0.07330298

onnx::Conv_643 f4 [16]
0	0xbf50336a	-0.8132845
1	0x3dc14640	0.09437227
2	0x3c6467e8	0.013940789
3	0xbf37fa29	-0.7186609
4	0x3ddc302b	0.10751375
5	0x3fa8ac62	1.3177607
6	0xbd4f0d1a	-0.050549604
7	0x3eb1981c	0.34686363
8	0x3fb1ccf7	1.3890675
9	0xbe3214cc	-0.17390746
10	0x3e80d71a	0.2516411
11	0x3d32ec8f	0.04368263
12	0x3f128e76	0.5724863
13	0x3f14f8ae	0.58191955
14	0x4025ff4e	2.5937076
15	0xbf6a29a2	-0.91469777

onnx::Conv_646 f4 [16]
0	0x3fd422e5	1.6573149
1	0x3e6b27a1	0.22964336
2	0xbf92d61d	-1.1471592
3	0xbe7f9a83	-0.24961285
4	0x3ecf6745	0.40508476
5	0x3f07c529	0.5303522
6	0xbf84854b	-1.0353178
7	0xbf0652b0	-0.5246992
8	0xbfc787af	-1.5588282
9	0x3fab37ca	1.33764
10	0x3e465b68	0.19370806
11	0xbfbfd533	-1.4986938
12	0x3e908734	0.28228152
13	0x3ecdcf85	0.40197387
14	0xbf87990d	-1.0593582
15	0x3ec31024	0.38098252

onnx::Conv_649 f4 [64]
0	0x3fe99671	1.8249036
1	0x3fe94117	1.8222989
2	0x400d072a	2.2035623
3	0x3fe4d51c	1.7877536
4	0xbf1dbbb3	-0.6161453
5	0x3f99f5af	1.2028102
6	0xbf1df69a	-0.6170441
7	0xbe99af0a	-0.30016357
8	0x3f79aa82	0.975258
9	0x3e9e00e0	0.30860043
10	0x3fab6a82	1.3391879
11	0x3e48cdef	0.19609807
12	0x3f356b99	0.70867306
13	0xbea2e02a	-0.3181165
14	0x3e8080ca	0.25098258
15	0xbda65980	-0.081225395
16	0x3f6bfa26	0.9217857
17	0xbf6ebbe8	-0.9325547
18	0x3e477da7	0.19481526
19	0x3f955336	1.1666019
20	0xbc4a5e80	-0.012351632
21	0x3f9be5fa	1.2179558
22	0xbf3c0cdb	-0.73457116
23	0x3fb8f272	1.4448988
24	0x3fe0b6dc	1.7555804
25	0x3f86ad76	1.0521686
26	0x4049b931	3.1519282
27	0x3ed1f1ca	0.41004783
28	0x400ba5e0	2.1819992
29	0x3f9f0960	1.2424736
30	0x3f3f697c	0.7477033
31	0x3fcfc518	1.6232023
32	0xbeb13aaa	-0.3461507
33	0x3e47bf14	0.19506484
34	0x400b77bd	2.1791832
35	0x3f8aab18	1.0833464
36	0x3f87163e	1.0553663
37	0xbfc2c0e9	-1.5215122
38	0x3f99b74b	1.2009062
39	0xbf1c1d83	-0.6098253
40	0x3f80ab31	1.0052243
41	0xbf2f6c50	-0.68524647
42	0x3f77803b	0.9668004
43	0x3e80112f	0.2501311
44	0x3fbfafea	1.497556
45	0x3f3a63d8	0.728086
46	0xbf654496	-0.8955778
47	0x3fb3010a	1.3984692
48	0x3f2d7145	0.6775096
49	0x3f871953	1.0554603
50	0xbe51911f	-0.20465516
51	0x3f4e6b1d	0.8063219
52	0xbe3b2082	-0.1827412
53	0x3d125d18	0.035733312
54	0x3f9bda86	1.2176063
55	0xbf1463a2	-0.5796453
56	0xbf646f0d	-0.8923195
57	0x3efbdf1c	0.49193656
58	0x3f556597	0.8335814
59	0x3f8d9215	1.1060206
60	0x3f8fb5d7	1.1227368
61	0x3ffb1eac	1.9618735
62	0x403151aa	2.7706094
63	0x3fe8da91	1.8191701

onnx::Conv_652 f4 [64]
0	0x3fb946cf	1.4474734
1	0x3fad6cd8	1.3548841
2	0xbe60ad42	-0.21941093
3	0xbcdd33e4	-0.027002282
4	0x3f37a88f	0.71741575
5	0xbeb0e31f	-0.3454828
6	0xbee3bb32	-0.44478756
7	0x3f649d11	0.89302164
8	0xc128d4cc	-10.551952
9	0xbf0bc466	-0.54596555
10	0xbf098696	-0.53720987
11	0x3de9b800	0.11412048
12	0xbec5e862	-0.38653857
13	0x3f8665ce	1.0499818
14	0xbf7e473c	-0.99327445
15	0x3e6f768c	0.23385066
16	0x3fa27203	1.2691044
17	0x3f4eb928	0.80751276
18	0xbf31a8dc	-0.69398284
19	0xbe1b9220	-0.15192461
20	0x3f66d7b4	0.90172887
21	0xbd52a602	-0.05142785
22	0x3cd948f0	0.026524037
23	0x3df05a34	0.11735955
24	0xbf0cbc7f	-0.5497512
25	0x3f6fa290	0.93607426
26	0x3ecd8902	0.4014359
27	0x3dcabc8c	0.09899244
28	0x402b3850	2.675312
29	0xbf18cb17	-0.5968489
30	0xbee3cbed	-0.4449152
31	0x3faccda0	1.3500252
32	0x3f1e8649	0.6192365
33	0x3ee1771e	0.44036192
34	0x3fa7bde8	1.310483
35	0x405f4ccb	3.489062
36	0x3ec0880b	0.37603793
37	0xbe64cc92	-0.22343662
38	0xbf7a3b7d	-0.9774702
39	0x3ce82160	0.028336227
40	0x4044e468	3.0764408
41	0x3f1406cc	0.5782287
42	0xbf80a6da	-1.0050919
43	0x3ce93c68	0.028471187
44	0x3b3e3f40	0.00290294
45	0xbd6fb360	-0.058520675
46	0x3fb5da36	1.4207218
47	0xbe14da59	-0.14536418
48	0x400eb503	2.229798
49	0x4028daf2	2.6383634
50	0xbe51913b	-0.20465557
51	0xbf50db44	-0.8158457
52	0x3ec15f28	0.3776791
53	0x3fb856f2	1.4401534
54	0xbe08e835	-0.1336983
55	0x3f921c5d	1.1414906
56	0x3f869ce9	1.0516635
57	0x3f98df66	1.1943176
58	0xbebd2b47	-0.3694708
59	0xbecbcefc	-0.39806354
60	0xbe15dd70	-0.14635253
61	0x3d518b20	0.05115807
62	0x3fb8b26a	1.4429448
63	0x3f770540	0.96492386

onnx::Conv_655 f4 [24]
0	0xbd1e4bb7	-0.038646426
1	0xbe53ba0b	-0.20676439
2	0xbf9c3a26	-1.2205245
3	0xbf9ef06c	-1.2417121
4	0xbe93c08d	-0.28857842
5	0x3e0a8eca	0.13531032
6	0x3e85d476	0.26138657
7	0x3f60acc9	0.8776365
8	0xbffe8828	-1.9885302
9	0x3fa31329	1.2740222
10	0x3f0dc477	0.55377907
11	0xbe5645f7	-0.20925127
12	0xbefd167d	-0.4943122
13	0xbeda8970	-0.42682981
14	0x3f276bdc	0.65398955
15	0x3f2f797a	0.68544734
16	0xbff84e30	-1.9398861
17	0x3e0ea695	0.13930734
18	0x3f0b07de	0.5430888
19	0x3e3b184a	0.18270984
20	0x3e95e668	0.2927735
21	0x3f8e2d52	1.1107581
22	0x3e078aea	0.13236585
23	0x3f70f19c	0.94118667
